assets/logistics.tflite (tflite, 34884 bytes, 1 tensors)

sequential_3_1/dense_3_1/MatMul f4 [1, 8397]
0.0227354 0.010793758 0.322223 0.34977826 0.0 -0.033135924 0.039999977 0.06060692
0.010180842 0.33079222 0.028084988 0.5556132 0.0034118574 0.009862344 0.019851245 0.057539586
0.55313575 0.12917341 0.0 0.05987537 0.0 0.007057182 0.8977897 0.082285434
0.082285434 0.05728683 0.16561584 4.21477e-05 0.0005682539 0.1871059 0.061064336 0.05987537
0.05999383 0.07738914 0.014130865 0.0 0.06300488 0.05728683 0.05987537 0.007025864
0.0 0.0036713826 0.0 0.115338534 0.35095647 0.07782703 0.05476575 0.03215055
0.76627016 0.000758473 0.0006294526 0.44811994 0.04365066 0.030703763 0.03064013 0.0004374933
0.0023901495 0.010765555 0.0 0.04202318 0.011394754 0.00500695 0.07738914 0.10386666
0.099052034 0.005510104 0.0014536872 0.019871777 0.053079627 1.6888029e-05 0.0010987668 0.011017718
0.18868572 0.023785353 0.040709738 0.0 0.105350465 0.009990602 0.0015752113 0.0
0.07872537 0.0015956877 0.27206627 0.012365472 0.018996341 0.11798703 0.05545886 0.25963938
0.007466356 0.012868843 0.0046648965 0.14496592 0.0 0.39372888 0.18151616 0.014132497
0.0056985435 0.0641451 0.1304261 0.021831572 0.006912652 0.038957264 0.0 0.07454907
0.0016432543 0.18124753 0.2207423 0.08523835 0.04187196 0.0 0.14425728 0.14425728
0.14425728 0.1795537 0.056150563 0.02608451 0.102498986 0.0 0.0 0.010041437
0.036013003 0.037072565 0.06529927 0.0016432543 0.0001315122 0.0 0.0 0.0001315122
0.0 0.0 0.0031053824 0.05476575 0.062815435 0.059035968 0.05987537 0.0
0.057521388 0.2207423 0.00455612 0.12554324 0.0 0.01576878 0.0 0.0019481758
0.35859147 0.19267513 0.00042487463 0.26265654 0.0031102218 0.29975432 0.24317585 0.11687238
0.031580236 0.38089776 0.07857528 0.006912652 0.038957264 0.038957264 0.0 0.02181827
0.00470107 0.0028364798 0.007025864 0.05164661 0.02995095 0.0 0.062815435 0.2207423
0.0 0.061064336 0.0 0.2986687 0.5119418 0.005988659 0.05728683 0.05987537
0.0 0.021822901 0.0 0.0042480403 0.0022725256 0.00018057408 0.055518404 0.055518404
0.0 0.008009234 0.02181827 0.003577947 0.010638738 0.17284143 0.019937828 0.031580236
0.07757996 0.004042782 0.22680989 0.0 0.001168887 0.001168887 0.0048674983 0.2120375
0.1319303 0.0 0.18116474 0.36232948 0.09685981 0.007708747 0.09685981 0.0
0.0041126357 0.17323217 0.02220007 0.0 0.24483071 0.0019306338 0.09169425 0.16825886
0.0 0.0019451793 0.004907625 0.004683931 0.015230868 0.038062163 0.033867773 0.0019265058
0.0043531777 0.03851534 0.002845781 0.0016499497 0.0 0.0008257672 0.019169942 0.010793758
0.11104848 0.004047799 0.010638334 0.0 0.012618163 0.016160998 0.0009447608 0.009276408
0.00064258755 0.055957112 0.0015561859 0.0006184983 0.0006184983 0.0 0.0 0.0036713826
0.07973295 0.07973295 0.00064953754 0.0 0.0013002141 0.06736609 0.0048937076 0.004909688
00000000: 973f ba3c 4dd8 303c 6afa a43e 2316 b33e
00000010: 0000 0000 89b9 07bd 04d7 233d f63e 783d
00000020: 8ccd 263c 995d a93e 7d12 e63c ab3c 0e3f
00000030: 7899 5f3b ab95 213c 149f a23c a1ae 6b3d
00000040: 4e9a 0d3f 0946 043e 0000 0000 e03f 753d
00000050: 0000 0000 ef3f e73b 8cd5 653f 4485 a83d
00000060: 4485 a83d 98a5 6a3d 3397 293e c0c7 3038
00000070: e0f6 143a b098 3f3e 991e 7a3d e03f 753d
00000080: 17bc 753d 337e 9e3d 2585 673c 0000 0000
00000090: b408 813d 98a5 6a3d e03f 753d 3839 e63b
000000a0: 0000 0000 949b 703b 0000 0000 9c36 ec3d
000000b0: 91b0 b33e c763 9f3d 0d52 603d 4cb0 033d
000000c0: 482a 443f 43d4 463a d901 253a fa6f e53e
000000d0: 09cb 323d 7586 fb3c 0301 fb3c 5b5f e539
000000e0: 0ea4 1c3b 0362 303c 0000 0000 7f20 2c3d
000000f0: 10b1 3a3c 5711 a43b 337e 9e3d 0bb8 d43d
00000100: cbdb ca3d 1a8e b43b a689 be3a 23ca a23c
00000110: 066a 593d c4aa 8d37 7f04 903a a983 343c
00000120: d436 413e 80d9 c23c 41bf 263d 0000 0000
00000130: fcc1 d73d 9faf 233c 5277 ce3a 0000 0000
00000140: c43a a13d 6526 d13a 454c 8b3e 8c98 4a3c
00000150: 379e 9b3c 2fa3 f13d d428 633d 74ef 843e
00000160: 55a8 f43b d7d7 523c fddb 983b f271 143e
00000170: 0000 0000 d596 c93e 5fdf 393e fd8b 673c
00000180: d9ba ba3b 825e 833d 6b8e 053e 20d8 b23c
00000190: 8783 e23b a791 1f3d 0000 0000 2fad 983d
000001a0: 7762 d73a f498 393e 450a 623e 7291 ae3d
000001b0: ef81 2b3d 0000 0000 2eb8 133e 2eb8 133e
000001c0: 2eb8 133e eddc 373e 22fe 653d 2faf d53c
000001d0: fdea d13d 0000 0000 0000 0000 d784 243c
000001e0: 5f82 133d 67d9 173d a0bb 853d 7762 d73a
000001f0: 8ae6 0939 0000 0000 0000 0000 8ae6 0939
00000200: 0000 0000 0000 0000 ac83 4b3b 0d52 603d
00000210: 61a5 803d b3cf 713d e03f 753d 0000 0000
00000220: 8c9b 6b3d 450a 623e 814b 953b 688e 003e
00000230: 0000 0000 872d 813c 0000 0000 ef59 ff3a
00000240: 4d99 b73e a14c 453e b5c1 de39 eb7a 863e
00000250: ddd4 4b3b 6679 993e 1703 793e c95a ef3d
00000260: 475a 013d 0805 c33e 14ec a03d 8783 e23b
00000270: a791 1f3d a791 1f3d 0000 0000 3bbc b23c
00000280: 6f0b 9a3b 3ce4 393b 3839 e63b 658b 533d
00000290: b25b f53c 0000 0000 61a5 803d 450a 623e
000002a0: 0000 0000 991e 7a3d 0000 0000 1beb 983e
000002b0: 9e0e 033f 833c c43b 98a5 6a3d e03f 753d
000002c0: 0000 0000 f1c5 b23c 0000 0000 2533 8b3b
000002d0: a7ee 143b 7c58 3d39 4467 633d 4467 633d
000002e0: 0000 0000 2a39 033c 3bbc b23c fd7b 6a3b
000002f0: 1a4e 2e3c 58fd 303e a854 a33c 475a 013d
00000300: 3ee2 9e3d 5079 843b da40 683e 0000 0000
00000310: 5735 993a 5735 993a 897f 9f3b 5c20 593e
00000320: bd18 073e 0000 0000 4083 393e 4083 b93e
00000330: 705e c63d a899 fc3b 705e c63d 0000 0000
00000340: 4ac3 863b c663 313e ecdc b53c 0000 0000
00000350: e7b4 7a3e 520d fd3a 32ca bb3d 0d4c 2c3e
00000360: 0000 0000 63f5 fe3a 24d0 a03b a97b 993b
00000370: e48a 793c 12e7 1b3d efb8 0a3d cf82 fc3a
00000380: 1aa5 8e3b 43c2 1d3d 4880 3a3b 2043 d83a
00000390: 0000 0000 4c78 583a 480a 9d3c 4dd8 303c
000003a0: 636d e33d 66a3 843b 684c 2e3c 0000 0000
000003b0: 69bc 4e3c 1264 843c d3a9 773a 13fc 173c
000003c0: 5273 283a 4933 653d eff8 cb3a b822 223a
000003d0: b822 223a 0000 0000 0000 0000 949b 703b
000003e0: 074b a33d 074b a33d ba45 2a3a 0000 0000
000003f0: f26b aa3a 3cf7 893d 655b a03b 73e1 a03b
